classification/model/NTERs_trained_cnn_05152019.statedict.pt (torch_old, 417266 bytes, 12 tensors)

conv1.0.weight f4 [17, 1, 3, 3]
0	0x3f7a4d66	0.9777435
1	0x3f1ea55a	0.61971056
2	0x3f66ce4f	0.9015855
3	0x3f6fbdc8	0.9364896
4	0x3f85131b	1.0396456
5	0x3f53a2e6	0.8267044
6	0xc0839fd4	-4.1132603
7	0xc0a2b647	-5.0847507
8	0xc018d513	-2.388005
9	0xbf64dee9	-0.89402634
10	0xbe6254be	-0.22102639
11	0xbec63035	-0.38708654
12	0x3e46c98b	0.1941282
13	0x3eb03329	0.34414032
14	0x3ecda31a	0.401635
15	0x4026c56f	2.6058004
16	0x40505bf1	3.2556117
17	0x4007ce9e	2.121986
18	0xbfaaaf35	-1.3334719
19	0xbcd1f679	-0.025630223
20	0x3f40dfbd	0.753414
21	0xbedfb7ea	-0.43695003
22	0xbf595534	-0.84895635
23	0x3f8a3ce7	1.0799836
24	0x4062ff21	3.5468218
25	0xbf91c8b0	-1.138937
26	0xbfbca81b	-1.4738802
27	0xbdaa841c	-0.08325979
28	0xbe0a4530	-0.13502955
29	0x3b76aa00	0.003763795
30	0xbd3672b8	-0.044542998
31	0xbe88e67a	-0.2673834
32	0xbe1d3768	-0.15353167
33	0x3da8c10c	0.08239946
34	0x3e3ef9c2	0.18649963
35	0x3d8c4ce4	0.06850603
36	0x3e87b091	0.26501897
37	0xbea00702	-0.31255347
38	0xbd0eaa18	-0.034830183
39	0xbd26dbc0	-0.040736914
40	0x3e300012	0.17187527
41	0x3d6d7488	0.05797246
42	0xbe8e89e4	-0.27839577
43	0xbe291283	-0.16510968
44	0xbe390ebb	-0.18072025
45	0x3e4e54aa	0.20149484
46	0xbea94f56	-0.3306834
47	0x3dfa8714	0.12232795
48	0x3e066776	0.13125405
49	0xbe640360	-0.22266912
50	0xbd3c1058	-0.045914024
51	0xbe3aa588	-0.18227208
52	0x3bf88ec0	0.0075853765
53	0xbe9e0e6b	-0.30870375
54	0xbdeac922	-0.11464144
55	0xbe3726be	-0.17885873
56	0xbfb76cfb	-1.4330133
57	0x3e2f5d08	0.17125332
58	0xbf90ea50	-1.1321507
59	0xbe9566e8	-0.29180074
60	0x40b1981b	5.5498176
61	0x3e592504	0.21205527
62	0xbfeebf7c	-1.8652186
63	0xbf627165	-0.88454276
64	0x3e082da7	0.13298665
65	0xbf5117db	-0.81677026
66	0x3da68d11	0.08132375
67	0xbfa26f54	-1.2690225
68	0xbe18d66b	-0.14925544
69	0x40c3baf1	6.11657
70	0xbf11a265	-0.5688842
71	0xbf715713	-0.9427349
72	0xbe1dc449	-0.15406908
73	0x3d2250ae	0.039627723
74	0x3e5ae2a2	0.21375516
75	0x3e155a94	0.14585334
76	0xbda270fc	-0.07931706
77	0xbe5405af	-0.20705293
78	0x3deb9b0d	0.11504183
79	0xbc64753f	-0.013943969
80	0xbb90ce79	-0.0044191447
81	0xbe64a969	-0.2233025
82	0x3dd8ecc0	0.105920315
83	0xbead06fb	-0.33794388
84	0x3f0607c1	0.5235558
85	0x3e89f803	0.2694703
86	0x3ede87ea	0.4346307
87	0x3fe5aea6	1.7943923
88	0x3fb09ae3	1.3797268
89	0x3f7d2204	0.9888003
90	0x3de4c8cc	0.111711115
91	0x3ca86bd0	0.020559222
92	0xbe92dd68	-0.28684545
93	0x3dcfc11c	0.101442546
94	0xbe4048e8	-0.18777812
95	0xbe5cb2a6	-0.21552524
96	0xbd57c8a8	-0.052681595
97	0xbe86399a	-0.26215822
98	0x3e9297c1	0.28631404
99	0x3f8a638a	1.0811627
100	0xbf546108	-0.8296056
101	0xbfa10854	-1.2580667
102	0x3f12ad5a	0.57295763
103	0xbfd553ad	-1.6666161
104	0x3e50074d	0.20315285
105	0xc01e7e16	-2.4764457
106	0xbf9b3379	-1.2125083
107	0x402662d8	2.599783
108	0xbe47a80b	-0.19497697
109	0xbe4ef476	-0.20210442
110	0x3e915a1d	0.28389063
111	0xbe99b317	-0.30019447
112	0xbe3f41f3	-0.18677501
113	0x3c793a20	0.015211612
114	0x3c1dbe80	0.009627938
115	0xbe83baef	-0.25728557
116	0x3e2c5b4a	0.16831699
117	0x3f7cafe2	0.98705876
118	0xbfa06ab2	-1.2532561
119	0x3e978343	0.29592332
120	0xbfb163e9	-1.3858615
121	0x3fb67892	1.4255545
122	0xbf1ca24c	-0.61185145
123	0xc021a426	-2.5256438
124	0x408dbb2a	4.429097
125	0xbfbbac6f	-1.4661998
126	0xbea4f759	-0.3221996
127	0x3e4dea94	0.20109016
128	0xbbd69ecf	-0.006549693
129	0x3e086d48	0.13322937
130	0x3e5604fa	0.20900336
131	0x3dacf9be	0.08446072
132	0x3cf88670	0.030337542
133	0x3e8698e8	0.26288533
134	0xbe3b448e	-0.1828787
135	0x3dea5135	0.1144127
136	0x3d395d10	0.045254767
137	0xbdfbc93a	-0.1229424
138	0x3e3e148e	0.18562528
139	0xbd9ad8f1	-0.075609095
140	0x3e8be311	0.27321675
141	0xbdba1d94	-0.09087673
142	0x3e5be803	0.21475224
143	0xbe7193c6	-0.23591527
144	0xbf748693	-0.95517844
145	0x3f9091ed	1.1294533
146	0xbf542faf	-0.8288526
147	0xbe2837c8	-0.16427529
148	0xbf6cf37a	-0.92559016
149	0x3efdb544	0.49552357
150	0x40b1ecdd	5.560164
151	0xbfea9bd9	-1.8328811
152	0xc00eb0b3	-2.2295349

conv1.0.bias f4 [17]
0	0x3fd4dfc8	1.6630793
1	0xbfb1a177	-1.38774
2	0xbdd02d98	-0.10164946
3	0xbe45e8b6	-0.19327053
4	0xbe3b6546	-0.18300352
5	0xbe4aa220	-0.19788408
6	0xbe8392d2	-0.25697953
7	0xbf5d9434	-0.86554265
8	0xbe2c6c1d	-0.16838117
9	0xbf648118	-0.8925948
10	0xbe129608	-0.14315045
11	0x3f397cc8	0.72456026
12	0xbe630f2e	-0.2217376
13	0xbdc55be9	-0.09636671
14	0xbea1dbab	-0.31612906
15	0xbe7dafe3	-0.24774127
16	0xbe15b4d8	-0.14619768

conv2.0.weight f4 [18, 17, 1, 1]
0	0xc001b4d1	-2.0266612
1	0xbdc238de	-0.09483503
2	0xbcc905cc	-0.024538897
3	0xbe198be4	-0.1499477
4	0xbdc255f8	-0.094890535
5	0x3d7ec128	0.062195927
6	0xbee92cfc	-0.45542133
7	0xbe4549f7	-0.19266497
8	0xbdccb165	-0.09994773
9	0x3e31de39	0.17369927
10	0xbc2b4e90	-0.0104557425
11	0xbf067a47	-0.5253033
12	0x3e6f95c4	0.23396975
13	0xbe8b2114	-0.27173674
14	0x3da0bc36	0.078483984
15	0xbe4d6f6d	-0.20062037
16	0xbea157b4	-0.31512225
17	0xbf89503c	-1.072761
18	0xbd80797b	-0.062731706
19	0xbe6ba169	-0.23010792
20	0xbcc2fda8	-0.023802593
21	0x3d9951cc	0.07486305
22	0xbe1613c4	-0.14655977
23	0xbde2adc8	-0.110683024
24	0xbe398208	-0.18116009
25	0x3e449e61	0.19201042
26	0x3e9208ca	0.2852233
27	0xbda6b25e	-0.081394896
28	0xbe51285d	-0.20425554
29	0xbc480440	-0.0122080445
30	0x3f0501aa	0.51955664
31	0xbe568ea6	-0.20952854
32	0x3e2904bc	0.16505712
33	0x3e59f19b	0.21283571
34	0xbe297bc1	-0.16551115
35	0x3f987742	1.1911395
36	0xbebaefbf	-0.36511037
37	0xbde27ad2	-0.11058582
38	0xbe304688	-0.17214406
39	0x3e6dcf22	0.23223546
40	0x3e0a5bd3	0.1351159
41	0xbed224fd	-0.41043845
42	0xbdb91d1e	-0.09038757
43	0x3f22544a	0.63409865
44	0xbc3d5dc0	-0.011557996
45	0xbf489ba8	-0.7836251
46	0xbdd30c9a	-0.10305138
47	0xbe811df4	-0.25218165
48	0x3e0654f6	0.13118348
49	0xbdfd5953	-0.12370553
50	0xbe95f6ea	-0.29289943
51	0x3f908c67	1.1292847
52	0xbea04c7e	-0.3130836
53	0xbeb6840e	-0.35647625
54	0xbe47c6e9	-0.19509472
55	0x3e3a3e74	0.18187886
56	0x3e32ad7e	0.17448995
57	0xbe00f468	-0.12593234
58	0x3dd3e2ce	0.10345994
59	0x3e0a812a	0.13525835
60	0xbe925c48	-0.2858603
61	0xbb9851e0	-0.004648432
62	0xbe9a790e	-0.30170482
63	0x3d5e4fc8	0.054275304
64	0xbe5af0e9	-0.21380962
65	0x3da5bf80	0.08093166
66	0x3e05e4b8	0.1307553
67	0xbe9d36f3	-0.30705985
68	0x3cdda9e0	0.027058542
69	0x3ec55b63	0.38546285
70	0x3df7bf1f	0.12097
71	0x3e620fbe	0.22076318
72	0xbc9bae88	-0.019004121
73	0x3e3593da	0.17732182
74	0xbe2c6e44	-0.16838938
75	0xbf49c52c	-0.78816485
76	0xbe71ff96	-0.23632655
77	0x3e8f90d9	0.28040197
78	0x3c8a1680	0.016856432
79	0xbdc7f4d7	-0.09763496
80	0xbe0d68a2	-0.13809446
81	0xbdc682d9	-0.09692926
82	0x3d9afad9	0.07567377
83	0xbe619ee9	-0.22033276
84	0x3ca0cc25	0.019628594
85	0xbda385ab	-0.079844795
86	0xbf2a6b54	-0.6657002
87	0xbf9e5534	-1.2369752
88	0xbda6a0dc	-0.0813615
89	0x3e327d7c	0.17430681
90	0xbc9ed620	-0.019389212
91	0xbfa78bf2	-1.3089583
92	0x3d261e33	0.040556144
93	0x3d75d578	0.060018033
94	0xbe98c365	-0.29836574
95	0xbd515b18	-0.051112264
96	0xbfa1a0f9	-1.262725
97	0x3e53ee0e	0.2069628
98	0xbfd2d947	-1.6472558
99	0x3e7295a7	0.236899
100	0xbde4a272	-0.111637965
101	0xbfca2ded	-1.5795265
102	0x3c47d360	0.012196392
103	0xbe7356f3	-0.23763637
104	0x3e0826fd	0.13296123
105	0x3df400a8	0.11914188
106	0x3dd68fd4	0.10476652
107	0xbe156d19	-0.14592399
108	0x3ce0ffe4	0.027465768
109	0xbe61f607	-0.22066508
110	0xbdf9fb50	-0.12206137
111	0x3de37f9e	0.111083254
112	0xbdc4cd9c	-0.096095294
113	0x3e33feb1	0.17577626
114	0xbe260d0f	-0.16215919
115	0x3c8841d7	0.016632957
116	0x3e525e56	0.20543799
117	0x3e49bef0	0.19701743
118	0xbe533a07	-0.20627604
119	0x4044768a	3.069735
120	0x3df98f91	0.12185586
121	0x3e67450e	0.22584936
122	0x3d84c27c	0.064824075
123	0xbd00cd5c	-0.031445846
124	0xbd091dd8	-0.033475727
125	0xbd7ae7bf	-0.061256167
126	0xbfa4a1a9	-1.2861835
127	0xbd058e68	-0.032606512
128	0x3e6aa8c4	0.22915941
129	0x3e2c5f3c	0.16833204
130	0xbc1d7702	-0.009610893
131	0xbd5820d4	-0.052765682
132	0xbef2ad66	-0.47397918
133	0xbe07233d	-0.13197036
134	0xbd87ea3b	-0.06636473
135	0x3a4d565b	0.00078329974
136	0xbe77bd4d	-0.24193306
137	0xbd6aa2cc	-0.05728416
138	0xbdcb115c	-0.099154204
139	0xbdb726fc	-0.089429826
140	0x3e694170	0.22778869
141	0x3d5e0018	0.05419931
142	0xbe47b83b	-0.19503872
143	0x3e57806e	0.21045086
144	0x3cdc1800	0.026866913
145	0xbe153c0e	-0.1457369
146	0x3e6c7348	0.23090851
147	0x3d1aeeb0	0.037825286
148	0xbdf6946d	-0.12040029
149	0xbe3bb48a	-0.18330589
150	0x3d26f840	0.040764093
151	0xbe64433b	-0.22291271
152	0xbe19279c	-0.14956516
153	0x3f1411df	0.5783977
154	0x3fa9d2ca	1.3267453
155	0xbdc1df6c	-0.094664425
156	0x3e6951f4	0.22785169
157	0x3e71987a	0.23593321
158	0xbc91b910	-0.01778844
159	0x3f04c58c	0.5186393
160	0xc008c832	-2.137219
161	0xbe30c87f	-0.17263983
162	0x3f4f5afa	0.80998194
163	0x3dbe10d8	0.092805564
164	0xbf004c9b	-0.5011689
165	0xbe199e53	-0.15001802
166	0xbf38e191	-0.7221919
167	0xbdb41f24	-0.08795002
168	0xbe38a7f0	-0.18032813
169	0xbda3f051	-0.08004821
170	0xbe837c5b	-0.25680813
171	0x3e82c9ed	0.25544682
172	0xbe007ad7	-0.1254686
173	0x3c59c520	0.013291627
174	0xbcaff6e0	-0.021480024
175	0x3e53dcb8	0.20689666
176	0x3e23435f	0.15943669
177	0x3e3c16a3	0.1836801
178	0x3e6a61de	0.22888896
179	0x3d4b0a70	0.0495705
180	0xbe5affaa	-0.2138659
181	0xbcf012ac	-0.029305778
182	0x3dfa760c	0.12229547
183	0x3d83c921	0.06434847
184	0xbe73ec8f	-0.23820709
185	0x3d900bd0	0.07033503
186	0x3e54731f	0.2074704
187	0xbdfac6e3	-0.12244966
188	0x3ca11dff	0.019667624
189	0x3e4b4b58	0.1985296
190	0x3d3c5e28	0.045988232
191	0xbdd0ae5e	-0.10189508
192	0xbd766e10	-0.060163558
193	0x3d876691	0.0661136
194	0xbe453cce	-0.19261476
195	0xbdd35d46	-0.10320525
196	0xbd479441	-0.04872537
197	0xbd405dbc	-0.046964392
198	0x3dbf326a	0.093357876
199	0x3df46934	0.119341284
200	0xbe3930e3	-0.18085055
201	0x3e146111	0.14490153
202	0xbe5affce	-0.21386644
203	0x3e1b67f8	0.1517638
204	0x3f097af3	0.5370323
205	0x3dd0a4cd	0.10187683
206	0xbe1a3206	-0.15058145
207	0x3dc03ca0	0.09386563
208	0xbd92571c	-0.07145521
209	0x3e638bdc	0.22221321
210	0x3cc82168	0.024429992
211	0x3e3d3bc4	0.1847983
212	0x3c2b8d08	0.010470636
213	0x3e2d4c74	0.16923696
214	0xbde32f6c	-0.110930294
215	0xbe18febf	-0.14940928
216	0x3e526252	0.20545319
217	0xbe337e2d	-0.17528601
218	0x3cc1ce3b	0.023657909
219	0xbc9895fa	-0.018626202
220	0x3e4a73ce	0.19770738
221	0xbe4409cb	-0.1914436
222	0xbf3a9908	-0.7288976
223	0x3e4db525	0.20088632
224	0x3e17ca2e	0.14823219
225	0x3df28b24	0.11842945
226	0xbc7c8300	-0.015412092
227	0x3f0e8393	0.55669516
228	0xbf49e59e	-0.78865993
229	0xbd5d10c3	-0.053971063
230	0xbe9e2377	-0.30886433
231	0x3de456e8	0.111493886
232	0xbf10df14	-0.5659039
233	0x3e0dc884	0.13846022
234	0x3f230d52	0.636922
235	0x3e6ab6d4	0.22921306
236	0xbe6891d0	-0.22711873
237	0x3e6413fe	0.22273251
238	0xbe50963e	-0.20369813
239	0x3b4daadd	0.003138236
240	0x3fccd6c9	1.6003047
241	0xbdc13e5a	-0.09435721
242	0x3e3f4270	0.18677688
243	0x3e41bc28	0.18919432
244	0x402f43cb	2.7385128
245	0x4049f345	3.155473
246	0xbe0a2c61	-0.13493492
247	0x3e9960dd	0.29956713
248	0x3e6fada8	0.23406088
249	0x3f3f643b	0.74762315
250	0xbe583ebc	-0.21117681
251	0x3ff58439	1.9180976
252	0xbdf40188	-0.119143546
253	0xbe6ae2a8	-0.22938025
254	0x402b8315	2.6798756
255	0x3c852edd	0.016257698

conv2.0.bias f4 [18]
0	0x400480c4	2.0703592
1	0x3f56e325	0.83940345
2	0xbdbee9ec	-0.09321961
3	0xbf1a23f5	-0.60211116
4	0x3af6b848	0.0018823231
5	0x3fff2361	1.9932672
6	0xbe156cd5	-0.14592297
7	0xbf3bcf77	-0.7336344
8	0xbe683ee5	-0.22680242
9	0xbedc17b8	-0.42986846
10	0xbe946c02	-0.28988653
11	0xbe590726	-0.21194133
12	0xbf0b8271	-0.5449591
13	0x3fc2b87c	1.521255
14	0xbfbad47c	-1.4596095
15	0x3fb7be00	1.4354858
16	0xbe120453	-0.14259462
17	0x3fac15a6	1.3444107

conv3.0.weight f4 [32, 18, 4, 4]
0	0xbe0b058a	-0.13576332
1	0xbde0cc02	-0.109764114
2	0xbd29ef05	-0.041487712
3	0xbd838593	-0.06421962
4	0xbd9b8482	-0.07593633
5	0xbd00b4d7	-0.031422462
6	0xbd59842b	-0.05310456
7	0xbdbb60bc	-0.0914931
8	0xbce924ac	-0.02845987
9	0x3b25a76a	0.0025276789
10	0xbcc8ee20	-0.02452761
11	0xbcbbe287	-0.022935165
12	0xbb9b9a96	-0.0047486527
13	0xbd19408f	-0.037415083
14	0x3b8f760f	0.0043780874
15	0xbd921cb7	-0.07134383
16	0xbd8e38d0	-0.0694443
17	0xbd28afad	-0.041183162
18	0xbcb9d31d	-0.022683674
19	0xbc3f734c	-0.011685204
20	0xbda02c10	-0.07820904
21	0xbcc05466	-0.023477744
22	0xbd23326d	-0.03984301
23	0xbc011766	-0.007879114
24	0xbdcfef5c	-0.10153076
25	0xbd938ce9	-0.07204611
26	0xbdae0e4a	-0.08498819
27	0xbdb8fb98	-0.09032363
28	0x3cef61da	0.029221464
29	0xbd37b74f	-0.04485255
30	0xbdc32b6f	-0.09529769
31	0x3a517224	0.00079897256
32	0xbde6a261	-0.1126144
33	0xbd74f839	-0.059807036
34	0xbd6a60bc	-0.05722116
35	0xbe11e743	-0.14248376
36	0xbd15186e	-0.03640025
37	0xbd91c2ae	-0.0711721
38	0xbd05dfc0	-0.032684088
39	0xbd8940fa	-0.067018464
40	0x3ab90a1e	0.0014117395
41	0xbc66acd9	-0.014079296
42	0x3d4089e0	0.047006488
43	0x3c87a810	0.01655963
44	0xbd0271ad	-0.03184669
45	0xbafb57d5	-0.0019175956
46	0xbac77b0b	-0.0015219165
47	0xbca827bf	-0.020526765
48	0x3cccd585	0.025004158
49	0x3d84ba99	0.06480903
50	0x3cbe775c	0.023250274
51	0x3d0e1502	0.034688003
52	0xbd382967	-0.04496136
53	0x3d7a6f08	0.061141044
54	0xbd08f00d	-0.033432055
55	0xbc0386d8	-0.008027755
56	0x3cb24cf3	0.021765208
57	0x3d1218e4	0.03566827
58	0x3c3e571b	0.011617447
59	0xbd476d13	-0.048688006
60	0xbd1247eb	-0.035713118
61	0x3d70ee61	0.058821086
62	0x3b9b7c8f	0.004745073
63	0x3c87f6ec	0.016597234
64	0xbdc8d4b2	-0.098061934
65	0xbd2b7565	-0.041860003
66	0xbdb43745	-0.08799604
67	0xbcd454d2	-0.025919352
68	0xbcc126af	-0.023578016
69	0x3cc8d1de	0.024514135
70	0xbd194269	-0.03741685
71	0x3b3f0b0b	0.002915087
72	0xbaac9944	-0.0013168235
73	0xbcbe7a22	-0.023251597
74	0xbd865013	-0.06558242
75	0xbc9bb035	-0.01900492
76	0x3cc7bb4d	0.024381304
77	0x3cfd0269	0.030884938
78	0x3c213cd2	0.009841161
79	0x3b94ed88	0.0045449175
80	0x3bc100d5	0.0058899918
81	0x3d561e6e	0.052275114
82	0xbd8c99f4	-0.06865302
83	0x3b6a8b4d	0.0035788596
84	0xbd96e438	-0.07367748
85	0x3d11cbf4	0.035594895
86	0xbb02da0f	-0.0019966399
87	0xbc8202af	-0.01587042
88	0x3b15e038	0.002286924
89	0x3cac5363	0.021035856
90	0x3bd8b24a	0.0066130506
91	0x3cf0e630	0.029406637
92	0xbd7a2b79	-0.061076615
93	0xbda2daa6	-0.0795186
94	0xbbf71389	-0.0075401706
95	0xbcf0efcd	-0.02941122
96	0xbd2e1b7b	-0.042506676
97	0x3d2f85e1	0.042852286
98	0xbd6dcc6a	-0.058056273
99	0xbb9c257b	-0.00476521
100	0x3cdb8d61	0.026800813
101	0x3cfecbfc	0.031103127
102	0x3b737b58	0.0037152376
103	0x3d5eb483	0.05437137
104	0x3c89c368	0.01681681
105	0xbcf6f724	-0.030147143
106	0x3bd09745	0.006365689
107	0xbd18d316	-0.037310682
108	0xbcecb36e	-0.028894152
109	0xbd402892	-0.04691369
110	0xbd4bdaad	-0.049769092
111	0xbc59760d	-0.013272774
112	0x3d9a7cd8	0.07543343
113	0x3e277d4b	0.16356389
114	0x3d6eb1a6	0.058274888
115	0x3c66dcc6	0.014090722
116	0x3d9adc1a	0.07561512
117	0x3e1bfc26	0.15232906
118	0x3e0a49f4	0.13504773
119	0x3d924b95	0.071433224
120	0x3c8cf4e1	0.017206611
121	0xbd41ee38	-0.047346324
122	0x3c8268e3	0.015919155
123	0x3c83cfcf	0.016090302
124	0x3e4caae5	0.19987066
125	0x3e25885b	0.16165297
126	0x3e481fa7	0.19543324
127	0x3e2949c9	0.16532053
128	0xbd5cfa84	-0.053949848
129	0xbd67c7b4	-0.056586936
130	0xbd3835c7	-0.04497316
131	0x3c272954	0.0102027245
132	0x3d340acb	0.043955605
133	0xbc895ee8	-0.016768888
134	0xbd22062a	-0.03955666
135	0x3b0a9a40	0.002114907
136	0x3d1a7927	0.037713196
137	0xbd088de5	-0.033338446
138	0xbd1082c8	-0.035280973
139	0xbd474e78	-0.048658818
140	0xbd42a286	-0.047518276
141	0x3d48111f	0.048844453
142	0x3c458b64	0.012057159
143	0x3cca0fe6	0.024665784
144	0xbd58cf59	-0.052932117
145	0xbe061b31	-0.1309631
146	0xbda63575	-0.08115665
147	0xbe26723a	-0.16254511
148	0xba793a36	-0.00095072703
149	0xbdadfda3	-0.08495643
150	0xbd6d4311	-0.057925288
151	0xbd25d021	-0.04048169
152	0xbcb71a79	-0.02235149
153	0xbdc8cba1	-0.09804464
154	0xbd43a1f4	-0.047761872
155	0xbca4c841	-0.02011502
156	0xbcc394cf	-0.023874668
157	0xbb4a4452	-0.0030863476
158	0xbc55bcba	-0.013045484
159	0x3ce4661c	0.02788072
160	0x3d3ee9b6	0.046609603
161	0xbc17ed8a	-0.009272942
162	0xbba52b9d	-0.0050405995
163	0xbcfd68ed	-0.030933822
164	0xbd0ed054	-0.034866646
165	0xbd19600d	-0.037445117
166	0xbb600ba9	-0.0034186637
167	0xbd10d53b	-0.035359602
168	0x3d402762	0.04691256
169	0xbcd9f1f4	-0.02660463
170	0xbcc4164a	-0.02393641
171	0xbd1ec85e	-0.038765304
172	0xba26ad29	-0.00063582003
173	0x3cdc6a23	0.026906079
174	0xbd5c6a7e	-0.053812496
175	0x3cf8f823	0.030391758
176	0x3d24d6d9	0.040243957
177	0x3d250a8f	0.040293273
178	0xbc40f1c4	-0.011776391
179	0xbc940a0a	-0.018071193
180	0x3d099314	0.03358753
181	0x3d1cec59	0.038311336
182	0x3d42d096	0.047562204
183	0xbc39f92b	-0.01135091
184	0x3d42b6eb	0.047537725
185	0x3d4b0852	0.04956848
186	0xba1d3fd7	-0.00059985876
187	0xbcacb1b9	-0.021080839
188	0x3d708ec8	0.058729917
189	0x3c71d2e5	0.014759754
190	0xbd0a5766	-0.033774756
191	0x3d625f72	0.055266805
192	0xbc7993e9	-0.015233018
193	0x3dacf72d	0.084455825
194	0x3c8bab30	0.017049402
195	0x3cb70f9c	0.02234631
196	0x3d926390	0.07147896
197	0x3cd35070	0.025795192
198	0x3cd75723	0.026286667
199	0xbce3c48a	-0.027803678
200	0x3d7c6760	0.061622024
201	0xbc807bf6	-0.01568411
202	0x3d8c7469	0.06858141
203	0x3d48f760	0.04906404
204	0xbd06a292	-0.032869883
205	0x3d9913f0	0.07474506
206	0x3cff284c	0.031147145
207	0x3da9037b	0.08252617
208	0xbdd2a0e9	-0.102845974
209	0xbdc771d3	-0.09738507
210	0xbcfb2d87	-0.030661358
211	0xbd9e1d54	-0.07720438
212	0xbe055f12	-0.13024548
213	0xbde6c908	-0.112688124
214	0xbdcb91eb	-0.09939941
215	0xbe015269	-0.12629093
216	0xbdc4916a	-0.09598048
217	0xbe020847	-0.1269847
218	0xbda09824	-0.078415185
219	0xbd472e52	-0.04862816
220	0xbdf713fc	-0.120643586
221	0xbdbd904a	-0.092560366
222	0xbdfced37	-0.12349933
223	0xbd8f77d7	-0.070052795
224	0x3ea8b2e3	0.3294898
225	0x3e7f9ba3	0.24961714
226	0x3e6f5493	0.23372106
227	0x3cc3e770	0.023914069
228	0x3e5b079d	0.21389623
229	0x3e2ec84e	0.17068598
230	0x3d22ac7c	0.039715275
231	0xbe676cf8	-0.22600162
232	0xbe27c993	-0.16385488
233	0xbe452b14	-0.19254714
234	0xbe3ef169	-0.18646778
235	0xbc6b93b7	-0.01437848
236	0x3d5f7f41	0.05456472
237	0x3c9295d0	0.017893702
238	0x3c6fe393	0.01464166
239	0xbd1ca5f1	-0.03824419
240	0xbd718d6f	-0.058972772
241	0xbd760d5e	-0.06007134
242	0xbbb35267	-0.0054724696
243	0x3c97c5b5	0.018526891
244	0xbcb5a529	-0.022173481
245	0xbcca552a	-0.024698813
246	0xbd0ee025	-0.03488173
247	0x3cc0ea33	0.023549175
248	0xbda7cc4f	-0.08193266
249	0xbd53ecee	-0.051739626
250	0xbcb20386	-0.021730196
251	0xbd6a539c	-0.057208642
252	0xbdeda5b0	-0.11603868
253	0xbdc538b0	-0.09629953
254	0xbc84f53d	-0.01623022
255	0xbde689b1	-0.11256731

conv3.0.bias f4 [32]
0	0xbddc282d	-0.107498504
1	0xbf199124	-0.5998709
2	0x3eb2ce69	0.34923103
3	0xbe19abac	-0.15006894
4	0x3ec72385	0.38894287
5	0x3db90cbd	0.09035633
6	0xbe2ff916	-0.17184862
7	0xbe96e2a4	-0.29469788
8	0xbcfe57d4	-0.03104774
9	0x3ede2063	0.43384084
10	0x3f1545d9	0.58309704
11	0x3e79a17a	0.24378005
12	0x3d10161a	0.035177328
13	0xbd721cd8	-0.05910954
14	0xbd94ed1e	-0.07271789
15	0x3d39e338	0.04538271
16	0x3c7d551c	0.015462186
17	0x3d18aa09	0.037271533
18	0xb9f76c20	-0.0004719207
19	0x3ed0d45a	0.4078701
20	0xbcfed8db	-0.031109264
21	0x3f048c42	0.51776516
22	0x3e772c70	0.24138045
23	0xbd35d654	-0.044393852
24	0x3d2b05e8	0.04175368
25	0x3f0cc3ce	0.54986274
26	0xbdbe6b42	-0.092978016
27	0x3e013e86	0.12621507
28	0x3c801c1e	0.015638407
29	0x3e6f242f	0.23353647
30	0xbe2c62b5	-0.16834529
31	0xbe92d42b	-0.28677496

conv4.0.weight f4 [37, 32, 2, 2]
0	0x3d82aabd	0.06380222
1	0xbc209cf3	-0.009803045
2	0xbd405c00	-0.046962738
3	0x3d57a0e7	0.052643683
4	0xbeb9ac85	-0.36264434
5	0xbebe551b	-0.37174305
6	0xbebb435f	-0.36574838
7	0xbe32fec1	-0.17479993
8	0x3e894db2	0.2681709
9	0x3c95b066	0.01827259
10	0x3e53e309	0.20692076
11	0x3e399a74	0.18125325
12	0x3e246b95	0.16056664
13	0x3e364c40	0.17802525
14	0x3c5cfb69	0.013487675
15	0x3cc57532	0.024103735
16	0xbd4e1859	-0.05031619
17	0xbce8c00b	-0.028411886
18	0x3dc9302b	0.098236404
19	0x3d59a792	0.053138323
20	0x3e4279e1	0.18991806
21	0x3e30b5ab	0.17256801
22	0x3dfe55e9	0.1241873
23	0x3e0e99fc	0.13925928
24	0xbdc3bc32	-0.0955738
25	0xbea06c7f	-0.31332776
26	0xbc7c63ae	-0.015404625
27	0xbdb7accf	-0.089685075
28	0xbe507723	-0.20357947
29	0xbea940d7	-0.3305728
30	0xbd14b4d5	-0.036305267
31	0xbe0b97fb	-0.13632195
32	0xbdc3f045	-0.09567312
33	0x3cb9ddba	0.022688735
34	0xbe08287f	-0.13296698
35	0xbdf9407d	-0.12170503
36	0xbd3730ef	-0.0447244
37	0xbca78dda	-0.020453382
38	0x3e3fd9c9	0.18735422
39	0x3da60eb9	0.08108277
40	0x3e1cb1b7	0.15302168
41	0xbd54198a	-0.05178217
42	0xbc6c4e4c	-0.014422964
43	0x3c92764c	0.017878674
44	0x3e924791	0.28570226
45	0x3e80447d	0.25052252
46	0x3e4c631e	0.19959685
47	0x3dcf5293	0.10123172
48	0xbd2f098f	-0.042733725
49	0x3c38f15d	0.011288014
50	0xbcd9b4f4	-0.026575543
51	0x3d661fc9	0.056182656
52	0x3c9e2d00	0.019308567
53	0x3d189163	0.037248027
54	0xbc45d7e4	-0.012075398
55	0x3ca2cfeb	0.019874534
56	0x3d14d5b7	0.036336627
57	0xbce6ea2d	-0.028187836
58	0x3cdf2e4e	0.02724376
59	0x3d72f488	0.059315234
60	0xbed2cc63	-0.4117156
61	0xbe9c6bd0	-0.30551004
62	0xbe1509f3	-0.14554577
63	0xbe82c988	-0.2554438
64	0x3d2b8439	0.041874144
65	0x3c0735eb	0.008252601
66	0xbc3ff153	-0.011715251
67	0x3cf4124a	0.029793877
68	0x3da62326	0.08112173
69	0x3d0c3b2f	0.03423613
70	0x3d319f36	0.043364726
71	0xbc74b297	-0.014935157
72	0xbc446709	-0.011987456
73	0x3c5056b0	0.01271598
74	0x3d6e2e61	0.0581497
75	0x3d4334e3	0.04765786
76	0x3e99ee7f	0.3006477
77	0x3e829e21	0.25511268
78	0x3e8269f4	0.2547146
79	0x3dc3199e	0.095263705
80	0x3d884a38	0.06654781
81	0x3d60646a	0.054783262
82	0x3c957ad8	0.018247053
83	0xbd0e3b1a	-0.034724332
84	0x3ecf7236	0.40516824
85	0x3eb55b1c	0.35421073
86	0x3d85a8ec	0.0652636
87	0x3e583b0c	0.21116275
88	0xbdaa0944	-0.083025485
89	0xbe946069	-0.28979805
90	0x3ba33816	0.004981051
91	0xbe609bc7	-0.21934424
92	0xbc361f06	-0.011115795
93	0x3b90628b	0.0044062785
94	0xbd57fa8e	-0.052729182
95	0xbdaa73fd	-0.08322904
96	0xbd7b2c3f	-0.061321493
97	0xbd2026a3	-0.039099347
98	0x3d771827	0.060325768
99	0xbd88b7d2	-0.06675686
100	0xbe304aa4	-0.17215973
101	0x3cad8cca	0.021185298
102	0xbe66a710	-0.22524667
103	0xbb78e586	-0.0037978604
104	0x3d90b29c	0.07065317
105	0xbe2007a5	-0.15627916
106	0x3e4f6f16	0.2025722
107	0x3d3e0fc7	0.046401765
108	0xbdb386fb	-0.0876598
109	0xbe8d4be2	-0.27596956
110	0xbe0861a1	-0.13318492
111	0xbe860a5e	-0.26179785
112	0x3be2dbdc	0.006923182
113	0xbcd64535	-0.026156047
114	0x3c0a2460	0.008431524
115	0x3d698e26	0.05702033
116	0xbdf32fad	-0.11874328
117	0xbdd880c3	-0.10571434
118	0xbe356fb2	-0.1771839
119	0xbdf2dde1	-0.11858726
120	0x3d4a21fc	0.049348816
121	0xbda1355d	-0.07871506
122	0xbc95bf60	-0.018279731
123	0x3d4d62dc	0.050143108
124	0xbcd17048	-0.025566235
125	0xbcf5513a	-0.029945958
126	0x3e28ea66	0.16495666
127	0x3d9f786f	0.07786643
128	0x3deb8865	0.115006246
129	0x3dc3f8a0	0.09568906
130	0xbd7a3ecb	-0.06109504
131	0x3d82196f	0.06352507
132	0x3d110b5e	0.03541123
133	0x3e14f269	0.14545597
134	0xba5558e2	-0.000813855
135	0x3d2cbaa7	0.042170193
136	0xbd91bafe	-0.07115744
137	0x3dd67a82	0.10472585
138	0x3e253a01	0.16135408
139	0x3e0e23e8	0.13880885
140	0x3d2c8c6c	0.042126104
141	0xbd24d7a4	-0.040244713
142	0x3df46db3	0.11934986
143	0x3c3b76e8	0.011441924
144	0xbe2e40d6	-0.1701692
145	0xbce7a446	-0.028276574
146	0x3ddae8f9	0.10688967
147	0x3e3b3630	0.1828239
148	0xbe4f3d95	-0.20238335
149	0xbdb1585e	-0.08659433
150	0xbe96f240	-0.29481697
151	0xbe8f002f	-0.27929828
152	0xbd934250	-0.071903825
153	0xbec09d3a	-0.37619954
154	0x3d860dcb	0.065455996
155	0x3d000fbf	0.031265017
156	0xbc87b8b4	-0.016567566
157	0xbd09b83f	-0.033622976
158	0xbd924bc0	-0.071433544
159	0xbdc6784d	-0.09690914
160	0xbe179c97	-0.14805828
161	0xbdfd5c45	-0.12371115
162	0x3d52b6a8	0.051443726
163	0x3e03e4e0	0.12880278
164	0x3edb7822	0.42865092
165	0x3e88c009	0.2670901
166	0x3eadfa90	0.33980227
167	0x3ea88582	0.32914358
168	0x3dafc347	0.08582168
169	0xbe39dad9	-0.1814989
170	0xbd88ab1f	-0.06673264
171	0x3d972c1a	0.073814586
172	0x3d5c00d1	0.053711716
173	0x3e0b12b2	0.1358135
174	0x3deb1349	0.11478288
175	0xbd0873b4	-0.033313468
176	0x3d902f11	0.07040227
177	0x3dbdcaa8	0.09267169
178	0xbd862b9c	-0.065512866
179	0xbc69cd94	-0.014270205
180	0xbc55f211	-0.013058201
181	0x3c0d8eff	0.00864005
182	0xbd60edc6	-0.05491426
183	0xbcf825d7	-0.030291481
184	0x3d4b1a94	0.049585894
185	0x3d608b99	0.05482063
186	0xbd686789	-0.056739364
187	0x3c87e8bd	0.01659047
188	0xbcb703ec	-0.022340737
189	0xbe86776c	-0.26262987
190	0xbd312cb8	-0.043255538
191	0xbddfa1aa	-0.10919507
192	0x3dc7cd49	0.09755952
193	0x3e2433f5	0.16035445
194	0x3d3551c3	0.044267427
195	0xbc404db0	-0.011737272
196	0x3d94dccb	0.072686754
197	0xbcc056bb	-0.023478856
198	0x3d7bc5fc	0.06146811
199	0xbd2a27e9	-0.041541968
200	0xbdb3b6e6	-0.087751195
201	0x3d9b5913	0.07585349
202	0xbd50b2b5	-0.05095168
203	0xbdc0aecd	-0.094083406
204	0x3dde851f	0.108652346
205	0x3de203c9	0.11035878
206	0x3d6c405a	0.057678558
207	0x3da0ab76	0.078452036
208	0x3d43cd2b	0.047803085
209	0x3da4e8c0	0.08052206
210	0xbd2dd31a	-0.04243765
211	0x3db247e7	0.087051205
212	0x3ea90de9	0.33018425
213	0x3e08c98c	0.13358134
214	0xbcb46857	-0.02202241
215	0x3d30a251	0.043123547
216	0x3c25d90e	0.010122551
217	0x3d8290e0	0.06375289
218	0xbec472e1	-0.38368896
219	0x3ed4c8c5	0.41559425
220	0xbd6a6b51	-0.05723125
221	0x3c47ae4b	0.012187551
222	0x3ccd6732	0.025073621
223	0x3cb19399	0.021676825
224	0xbd707208	-0.0587025
225	0xbdb1b3c1	-0.086768635
226	0x3d5c7d8e	0.053830676
227	0x3d954549	0.07288606
228	0xbd655f50	-0.0559991
229	0xbe91a60e	-0.28447002
230	0xbe104f67	-0.1409279
231	0xbe909543	-0.28238878
232	0x3d1f85d1	0.038945977
233	0x3d1a4c67	0.03767052
234	0x3db63255	0.08896319
235	0x3e222e67	0.15838014
236	0x3e1dc455	0.15406926
237	0x3de79e41	0.113094814
238	0xbde9b7fc	-0.11412045
239	0xbce58dcc	-0.028021716
240	0x3cea6a02	0.028615002
241	0x3d9f4711	0.07777227
242	0xbc7a2c91	-0.0152694145
243	0x3d8bb3ee	0.06821428
244	0xbef30438	-0.47464156
245	0xbec30bfc	-0.3809508
246	0xbe94fbd9	-0.29098395
247	0xbe589354	-0.21149951
248	0xbd843da5	-0.0645707
249	0x3d81ba35	0.06334344
250	0x3dc2a5eb	0.095043026
251	0x3e786ee3	0.2426105
252	0xbe381295	-0.17975838
253	0xbe91c8ce	-0.28473514
254	0x3d6fe3fe	0.05856704
255	0xbc686981	-0.01418531

conv4.0.bias f4 [37]
0	0x3db3bade	0.087758765
1	0x3e3545d5	0.1770242
2	0x3e4e62f8	0.20154941
3	0x3e25339b	0.16132967
4	0x3dc3fa11	0.09569181
5	0x3e6cd780	0.23129082
6	0x3cb50235	0.022095779
7	0x3ba43833	0.0050115823
8	0x3cfc70bc	0.030815475
9	0xbde58877	-0.11207669
10	0xbdf64f7e	-0.12026881
11	0xbd34734a	-0.04405526
12	0x3daf39c9	0.085559435
13	0x3d1c18c3	0.038109552
14	0x3dfa7d1c	0.12230894
15	0xbd3011b2	-0.042985626
16	0x3d26bdde	0.040708415
17	0xbd19f8e5	-0.03759088
18	0x3c8ec3e0	0.017427385
19	0x3db4ef1d	0.0883467
20	0xbc45d3df	-0.01207444
21	0x3e290715	0.16506608
22	0x3bc00b77	0.0058607417
23	0x3e31c26d	0.17359324
24	0x3dea3f79	0.11437888
25	0xbd884ddb	-0.06655475
26	0x3e813989	0.25239208
27	0xbe2d3f5d	-0.16918702
28	0x3e0fab77	0.14030252
29	0x3e84ca12	0.25935417
30	0x3e888884	0.26666653
31	0xbe81b892	-0.25336128
32	0x3ca0a453	0.019609606
33	0xbd41587b	-0.047203522
34	0xbdbdc915	-0.09266869
35	0x3db5eebc	0.088834256
36	0xbdc7e378	-0.09760183

fc1.weight f4 [148, 592]
0	0xbdb45e6e	-0.088070735
1	0xbd7aa763	-0.06119479
2	0xbd188c59	-0.03724322
3	0xbce75f39	-0.028243648
4	0xbc580461	-0.013184638
5	0xbdcb2ef4	-0.09921065
6	0xbbd454bf	-0.006479829
7	0xbd532c19	-0.051555727
8	0xbd99fc46	-0.075188205
9	0xbd1265d5	-0.035741646
10	0xbd2f32cd	-0.042773057
11	0xbcc72203	-0.02430821
12	0xbd11f0eb	-0.035630148
13	0xbd120d86	-0.03565743
14	0xbdb1f18a	-0.08688648
15	0xbd4ce51e	-0.05002319
16	0x3d2e0144	0.042481676
17	0xbb895916	-0.004191528
18	0x3d79fd7f	0.06103277
19	0x3dc4c8e0	0.09608626
20	0xbd2cb8f0	-0.042168558
21	0x3d4e3bb0	0.05034989
22	0xbc7f2f9d	-0.015575317
23	0x3c8b0584	0.016970403
24	0x3d0a82e9	0.033816252
25	0xbc9952d7	-0.018716259
26	0x3d414b78	0.047191113
27	0xbd0439ab	-0.03228156
28	0x3cc10d89	0.023566024
29	0xbc2f64a4	-0.010705147
30	0xbcce2c0f	-0.025167493
31	0x3d1d0c80	0.038342
32	0x3d141f88	0.036162883
33	0x3d224fbf	0.039626833
34	0x3c33ff7a	0.010986203
35	0xbc7105b8	-0.014710836
36	0x3d1f0027	0.038818505
37	0x3d5d343a	0.054004885
38	0x3d3971a5	0.045274395
39	0x3d176a96	0.036966883
40	0x3cbcd407	0.023050321
41	0x3c91b609	0.017786996
42	0x3b76569c	0.0037588244
43	0x3cbaabdb	0.022787025
44	0xbcedaffa	-0.029014576
45	0xbc8ff441	-0.017572524
46	0x3d122265	0.035677332
47	0xbb27c389	-0.0025598726
48	0xbb9d6452	-0.004803219
49	0x3e3b6924	0.18301827
50	0x3d9c5d32	0.07634963
51	0x3d8e23fa	0.06940456
52	0x3da2fd9f	0.07958531
53	0xbcc15564	-0.023600288
54	0x3da9c37f	0.08289241
55	0x3d03d8d7	0.032189216
56	0x3d5925e7	0.053014662
57	0x3daae11c	0.083437175
58	0x3d9052ad	0.07047019
59	0x3dad560e	0.08463679
60	0x3c99d4c7	0.018778218
61	0xbd13dcd3	-0.036099266
62	0xbc9172ef	-0.017755
63	0x3d1b50bc	0.03791879
64	0x3cab20e6	0.02088971
65	0xbcd52c22	-0.02602202
66	0xbcfc30ec	-0.030785047
67	0xbc3e63f1	-0.011620508
68	0x3ca88e30	0.020575613
69	0x3dbc410a	0.09192093
70	0x3c5401cb	0.012939881
71	0x3cbcd721	0.0230518
72	0xbd8482f2	-0.06470288
73	0xbc16ebbb	-0.009211476
74	0xba27cebd	-0.0006401351
75	0xbd06049b	-0.032719236
76	0xbe08865f	-0.13332509
77	0x3cfee178	0.031113371
78	0x3d5ffe39	0.054685805
79	0xbd82cd3c	-0.063868016
80	0x3c910510	0.01770261
81	0xbb3b6bff	-0.0028598306
82	0x3d65f7ca	0.056144513
83	0x3cabf561	0.02099103
84	0x3c35be3a	0.011092717
85	0x3d5b8a24	0.053598538
86	0x3a9c55ca	0.0011927423
87	0x3d5d04ed	0.053959776
88	0x3d129571	0.03578705
89	0x3c941bb5	0.018079618
90	0x3cc6b0da	0.024254251
91	0xbca5b979	-0.020230042
92	0x3ccab445	0.024744162
93	0x3d17f073	0.037094545
94	0x3d83e673	0.06440439
95	0x3d4417b6	0.047874175
96	0x3d0faac6	0.03507497
97	0x3d0622e5	0.03274812
98	0xbd43dde8	-0.04781905
99	0xbd6a03ce	-0.057132535
100	0x3caf3130	0.02138576
101	0x3d93c75c	0.07215759
102	0x3bc28438	0.005936172
103	0xbcb2a325	-0.021806309
104	0xbd09f280	-0.03367853
105	0xbdd9c7f0	-0.10633838
106	0xbdfed575	-0.124430574
107	0xbcc575ef	-0.024104087
108	0xbda00870	-0.07814109
109	0x3ba0ecb0	0.004911028
110	0x3d35b0bf	0.04435801
111	0xbcc1210a	-0.023575325
112	0xbc6d774e	-0.0144937765
113	0x3c4e2718	0.012582563
114	0xbd4b873d	-0.04968952
115	0xbc148783	-0.009065512
116	0x3d56806d	0.05236857
117	0xbced6325	-0.02897794
118	0x3bf55b9f	0.0074877287
119	0x3dbd467b	0.09241959
120	0x3da53c7e	0.080681786
121	0x3d8e4012	0.06945814
122	0x3d879577	0.06620305
123	0x3d01804f	0.031616505
124	0xbc260656	-0.010133347
125	0x3dbd45e7	0.092418484
126	0x3d49011b	0.04907332
127	0x3cbc1ec6	0.022963893
128	0x3dee26e4	0.116285115
129	0x3e065b0e	0.13120672
130	0x3dd3a2f8	0.10333818
131	0x3d075876	0.033043347
132	0x3d227e96	0.039671503
133	0x3d9515a9	0.07279522
134	0x3dbc1718	0.09184092
135	0x3d83fddf	0.064449064
136	0x3c8dc947	0.01730789
137	0x3d6291ce	0.05531483
138	0x3dbe1124	0.09280613
139	0x3d8fde3a	0.07024808
140	0xbb06acad	-0.00205497
141	0x3d0863cd	0.033298302
142	0xbbdc85de	-0.0067298254
143	0x3d84a7e4	0.06477335
144	0x3d125689	0.035727058
145	0xbc872f3f	-0.01650202
146	0x3cfac49d	0.03061133
147	0xbba33d27	-0.004981655
148	0x3d3963d6	0.045261227
149	0x3beb01b6	0.007171835
150	0x3cc5d9ef	0.02415177
151	0x3c396e68	0.011317827
152	0xbd0e263f	-0.034704443
153	0xbce367d4	-0.02775947
154	0xbc2a460e	-0.010392679
155	0xbbb36326	-0.005474466
156	0x3bf66f28	0.007520575
157	0xbc1dff4b	-0.009643386
158	0x3c00711e	0.007839469
159	0xbc294aec	-0.010332804
160	0xbd94e8c7	-0.07270961
161	0xbd77f09a	-0.06053219
162	0x3c7f17ec	0.015569668
163	0x3af7499e	0.0018866544
164	0x3d0ace8b	0.03388838
165	0x3d5bee8f	0.053694304
166	0xbccb973c	-0.024852388
167	0x3bd1ab01	0.006398559
168	0xbb842e96	-0.004033874
169	0xbcdb45d9	-0.026766704
170	0x3d8c31cb	0.06845435
171	0x3d4021a6	0.04690709
172	0x3d75ab0a	0.05997757
173	0x3c1f5a26	0.009726083
174	0xbc5d5a66	-0.013510322
175	0x3d05f828	0.032707363
176	0xbbc0997b	-0.0058776713
177	0x3cb05161	0.02152318
178	0x3bb3f3b4	0.005491698
179	0xbd129446	-0.035785936
180	0x3d2b6e1e	0.041853063
181	0xbcc42872	-0.023945067
182	0x3c9bb5c5	0.019007573
183	0xbba7135d	-0.005098744
184	0x3c271725	0.010198389
185	0xbd037aaf	-0.032099422
186	0xbcb68e52	-0.02228466
187	0xbcff732b	-0.031182846
188	0xbba0975d	-0.0049008564
189	0xbcd8692b	-0.026417335
190	0x3d182101	0.03714085
191	0xbd0eac94	-0.034832552
192	0x3c30dc21	0.01079467
193	0xbd1d495a	-0.03840003
194	0xbcfbf901	-0.030758383
195	0xbd222f3c	-0.039595827
196	0xbd0deff9	-0.034652684
197	0x3d1cb423	0.03825773
198	0xbc83501a	-0.016029406
199	0xbd13c13a	-0.036072947
200	0xbbbf66f2	-0.0058411295
201	0x3d140e04	0.03614618
202	0xbc340ef9	-0.010989898
203	0xbd1e22aa	-0.038607277
204	0x3c68a874	0.014200319
205	0x3c92f5c6	0.01793946
206	0x3b423f32	0.0029639718
207	0x3d29c8ac	0.04145114
208	0xbce40532	-0.027834509
209	0x3bb39ee6	0.0054815887
210	0xbcbfe4a8	-0.023424461
211	0x3d2a0f36	0.041518413
212	0x3c9157bf	0.017742036
213	0x3cb2b434	0.021814443
214	0x3d927710	0.071516156
215	0x3dd37627	0.1032527
216	0xbd63878e	-0.055549197
217	0x3d8a9de3	0.06768396
218	0x3bc20fe2	0.0059223035
219	0x3d9f764e	0.07786237
220	0xbd181d38	-0.03713724
221	0x3d392678	0.045202702
222	0x3c91f86a	0.017818648
223	0x3d703224	0.058641568
224	0xb997ff3c	-0.0002899113
225	0xbb9fbb96	-0.004874657
226	0x3d64131b	0.055682283
227	0xbc8a33a9	-0.016870337
228	0x3bee590e	0.0072737997
229	0x3c85b79f	0.016322909
230	0x3c003dfe	0.00782728
231	0x3d5a1016	0.053237997
232	0x3b944405	0.00452471
233	0x3c7cfc94	0.015441079
234	0xbc04e25e	-0.008110611
235	0x3c493e02	0.01228285
236	0x3cd2206b	0.025650224
237	0x3d4229e8	0.047403246
238	0xbc40eef2	-0.011775719
239	0x3c83c96c	0.016087256
240	0xbce34933	-0.027744865
241	0xbdbb1f13	-0.09136786
242	0xbda1e3dd	-0.079047896
243	0xbd728066	-0.05920448
244	0x3cd3dcd1	0.02586213
245	0xbaddbcaa	-0.0016917188
246	0xbb9aca09	-0.0047237915
247	0x3d026787	0.031837013
248	0x3d5168aa	0.051125206
249	0x3d495e56	0.04916223
250	0x3c86ce1a	0.016455699
251	0x3bffd676	0.007807548
252	0x3d194eb5	0.037428576
253	0xbb6d32bf	-0.0036193577
254	0x3cde80ec	0.027161084
255	0x3d0c411b	0.034241777

fc1.bias f4 [148]
0	0x3d1dbc85	0.038509864
1	0x3d0b3419	0.03398523
2	0xbd038880	-0.0321126
3	0x3da5eba9	0.08101589
4	0x3c0f8cca	0.008761594
5	0xbcb78c92	-0.022405896
6	0x3d0c8246	0.034303926
7	0x3b54474b	0.0032391127
8	0x3b525844	0.0032096067
9	0xbd805e9d	-0.06268046
10	0xbc1dd109	-0.009632357
11	0x3c1d8d05	0.009616141
12	0x3d06e14d	0.032929707
13	0xbc37330c	-0.011181604
14	0xba009a4f	-0.0004905806
15	0xbca7be45	-0.02047647
16	0x3d858e4a	0.0652128
17	0xbd587f55	-0.05285581
18	0x3c1a01a4	0.009399805
19	0x3cb27026	0.021781992
20	0xbd052827	-0.032508995
21	0x3ced7286	0.028985273
22	0x3ada5756	0.0016658108
23	0xbc273ed9	-0.010207855
24	0xbaa18216	-0.0012322094
25	0x3c988255	0.018616835
26	0xbd513349	-0.0510743
27	0xbb5d45c6	-0.0033763512
28	0xbd14c259	-0.036318157
29	0xbd7abc08	-0.061214477
30	0x3ca55009	0.020179765
31	0xb719ee04	-9.174928e-06
32	0x3c118b36	0.008883288
33	0xbcc08303	-0.023499971
34	0xbcb4a8ec	-0.022053204
35	0x3bf49e0c	0.0074651297
36	0xbd3bb04b	-0.045822423
37	0xbc97930b	-0.018502733
38	0x3d37bd53	0.044858288
39	0x3d9d8dc1	0.07693053
40	0x3abf126b	0.0014577633
41	0xbcc0eeb8	-0.02355133
42	0xbc784cae	-0.015155001
43	0xbc6bba1c	-0.014387634
44	0xbcdae1f4	-0.026719071
45	0xbcf4b5e2	-0.029871885
46	0x3d0e9c49	0.034817014
47	0xbc44b29f	-0.012005477
48	0xbcc6f9e9	-0.024289088
49	0xbc91e2b6	-0.0178083
50	0x3b6b7b6e	0.0035931724
51	0x3c9a9598	0.01887016
52	0xbcbd594a	-0.023113865
53	0xbd235a6f	-0.039881166
54	0x3cc1b8e4	0.023647733
55	0xbc6e37de	-0.014539687
56	0xbc1e1973	-0.009649622
57	0xbc1fe4da	-0.009759152
58	0xbbeae385	-0.0071682357
59	0x3d04d57f	0.03243017
60	0x3c9f6276	0.01945613
61	0x3d25ae2f	0.040449318
62	0x3bdf569d	0.006815745
63	0xbcf84f5f	-0.030311285
64	0xba26166c	-0.00063357386
65	0xbd053492	-0.032520838
66	0xbc4fda2a	-0.012686292
67	0xbc2c6462	-0.01052198
68	0x3b888968	0.0041667707
69	0xbceee848	-0.029163495
70	0xbc4b9544	-0.012425724
71	0x3d5c80a8	0.053833634
72	0xbc5af084	-0.013363007
73	0xb9dd9fa3	-0.00042271343
74	0xbccf3827	-0.02529533
75	0xbd0614c9	-0.032734666
76	0xbbd3cc01	-0.006463528
77	0x3b27b1f4	0.0025588246
78	0xbcd21a17	-0.025647206
79	0xbb98c4cc	-0.004662132
80	0x39806075	0.0002448593
81	0x3c0489f7	0.008089534
82	0xbbe9e6cf	-0.00713811
83	0xbca2c548	-0.019869462
84	0xbb922fde	-0.0044612726
85	0x3a4b657d	0.00077589584
86	0xbd0b0027	-0.033935692
87	0xbd1f56c1	-0.038901094
88	0xbc194612	-0.009355085
89	0xbc87f499	-0.016596125
90	0xbd286725	-0.04111399
91	0xbc456526	-0.012048041
92	0x3bf8b675	0.00759011
93	0x3b2d672c	0.00264592
94	0xbd0a674b	-0.033789914
95	0x3c1c62b8	0.009545021
96	0x3ccfdbc9	0.025373356
97	0xbbbf7798	-0.005843114
98	0xbd5d8b1c	-0.054087743
99	0xbd2306f7	-0.039801564
100	0xbd4a5a4b	-0.049402516
101	0xbc5fb171	-0.013653145
102	0x3b1ef870	0.0024256967
103	0xbd3ab3c7	-0.045581605
104	0xbc5a6719	-0.013330244
105	0x3d023d91	0.031796996
106	0xbb3d493f	-0.002888277
107	0x3cbdf217	0.023186726
108	0xbd61bb85	-0.055110473
109	0xbccdac54	-0.025106587
110	0x3b866631	0.0041015376
111	0x3cbb5e1c	0.022872023
112	0xbd14b83e	-0.03630852
113	0x3c2302e5	0.009949421
114	0xbd0ba8a6	-0.034096383
115	0x3b68eb98	0.0035540815
116	0xbcb35baa	-0.021894295
117	0xb9734337	-0.00023199325
118	0xbcf1e1ec	-0.029526673
119	0xbca61ac4	-0.020276435
120	0xbd141606	-0.036153816
121	0x3be72cdf	0.0070549096
122	0x3bfcf86e	0.007720045
123	0x3ad7f910	0.0016477425
124	0xbd3c36ed	-0.04595082
125	0xbc3cb305	-0.011517291
126	0x3ba2480a	0.0049524354
127	0xbcf9f628	-0.030512884
128	0xbc0d6f34	-0.00863247
129	0xbcb7f570	-0.0224559
130	0xbca8fac4	-0.020627387
131	0x3d32e9d9	0.043680046
132	0xbd07fdba	-0.033200957
133	0xbd417af2	-0.04723639
134	0xbd95ed73	-0.073206805
135	0x3ca788aa	0.020450909
136	0x3cf60b76	0.030034762
137	0x3cc711c0	0.024300456
138	0xbd10e700	-0.03537655
139	0xbd625827	-0.05525985
140	0xbd2bccfb	-0.04194353
141	0xbb4e0d98	-0.0031441208
142	0x3c10e3d2	0.008843379
143	0x3924d015	0.00015717775
144	0x3ccdf59d	0.025141532
145	0xbd0ccd20	-0.03437531
146	0xbc1cd323	-0.009571823
147	0x3c586318	0.01320722

fc2.weight f4 [10, 148]
0	0x3dd15325	0.10220937
1	0xbd6e92d1	-0.058245484
2	0x3c17be8d	0.009261739
3	0xbe32b5a3	-0.17452101
4	0x39c5ebb0	0.0003775037
5	0xbc51450b	-0.012772809
6	0x3da6a6b6	0.08137266
7	0x3e09fcab	0.13475291
8	0xbdd50a17	-0.10402315
9	0x3c2b54dc	0.010457244
10	0xbd903950	-0.070421815
11	0x3dd331b7	0.10312217
12	0x3e0f4f82	0.13995174
13	0xbdb76f19	-0.08956737
14	0xbe2bf2b0	-0.16791797
15	0x3d98ff74	0.07470599
16	0xbdd205de	-0.10255025
17	0x3da4dc3f	0.08049821
18	0x3d8c394d	0.06846867
19	0x3d321100	0.043473244
20	0x3e06e79e	0.13174292
21	0x3e2f4e62	0.17119744
22	0x3ea690e0	0.32532406
23	0xbe322f1f	-0.17400788
24	0xbd6f43d5	-0.0584143
25	0xbd15945e	-0.036518447
26	0xba975de8	-0.0011548372
27	0x3d37c933	0.044869613
28	0x3e41d396	0.1892837
29	0xbe375b4e	-0.17905924
30	0xbd8dcbd2	-0.06923641
31	0x3e03e541	0.12880422
32	0x3d0c64dc	0.034275874
33	0xbe04b3e4	-0.12959248
34	0x3ed03e1c	0.40672386
35	0x3e0ce7d5	0.13760312
36	0xbe5c4813	-0.21511869
37	0xbdebc1ca	-0.11511572
38	0x3d47040c	0.048587844
39	0x3d02cdfd	0.031934727
40	0xbe160263	-0.14649348
41	0x3c8295f4	0.015940644
42	0x3d5415c0	0.051778555
43	0x3e298fae	0.16558716
44	0xbd149e15	-0.03628357
45	0x3ca54df8	0.02017878
46	0xbda061c3	-0.078311466
47	0xbd9ce57f	-0.076609604
48	0x3e84eb9a	0.25961
49	0xbc8e0bab	-0.017339548
50	0x3df272bb	0.11838289
51	0x3e188e2e	0.14897987
52	0x3e567438	0.20942771
53	0xbe461520	-0.19343996
54	0x3dd90295	0.105961956
55	0x3da06ad6	0.07832877
56	0xbe721241	-0.23639776
57	0xbe22dcc2	-0.15904525
58	0xbe8b13f7	-0.2716367
59	0xbd787067	-0.06065407
60	0xbd522304	-0.051302925
61	0xbdd82ee5	-0.105558194
62	0x3e11fcf6	0.14256653
63	0xbe6a4602	-0.22878268
64	0x3e9904db	0.29886517
65	0x3c96965c	0.018382244
66	0xbdf86960	-0.12129474
67	0x3e27421c	0.16333812
68	0x3e9132bb	0.28359017
69	0x3dd29323	0.1028197
70	0x3d0e4d47	0.034741666
71	0xbdc4b6c2	-0.09605171
72	0xbe5e306a	-0.21698156
73	0x3d05fa0a	0.03270916
74	0x3d936de9	0.07198698
75	0xbc886b8b	-0.016652843
76	0x3d53405a	0.051575042
77	0x3e53308e	0.20623991
78	0x3cc24af1	0.023717375
79	0xbdd67079	-0.10470671
80	0x3dfa3e2f	0.12218892
81	0xbb923ad5	-0.0044625797
82	0xbccac019	-0.024749802
83	0xbd1509a0	-0.036386132
84	0x3e4e0a33	0.20121078
85	0xbe6214a7	-0.2207819
86	0x3e3c6683	0.1839848
87	0x3d7ee368	0.06222859
88	0x3e7bf3dc	0.24604744
89	0x3e3c782b	0.18405215
90	0x3ea7e5e7	0.3279259
91	0x3de80eaf	0.11330926
92	0xbc8c2812	-0.01710895
93	0xbe26f994	-0.16306144
94	0xbdfe0f77	-0.124052934
95	0xbddb3cf9	-0.10704989
96	0x3d89a1b0	0.067202926
97	0x3da1aa75	0.0789384
98	0x3d2d7581	0.04234839
99	0xbd8b7480	-0.0680933
100	0x3e4d54de	0.20051906
101	0xbc880175	-0.016602257
102	0x3e0ba443	0.1363688
103	0xbb5c9319	-0.0033657013
104	0xbd026776	-0.03183695
105	0xbd819238	-0.06326717
106	0x3d5007a0	0.05078852
107	0xbbd09f13	-0.0063666194
108	0xbc08de30	-0.008353755
109	0xbe084e73	-0.13311176
110	0xbe261239	-0.16217889
111	0xbd4f85a4	-0.05066456
112	0xbd830c63	-0.06398847
113	0xbd1acb86	-0.03779175
114	0xbe65c3bf	-0.22437952
115	0x3d79058e	0.060796313
116	0xbea52718	-0.3225639
117	0xbd6062c6	-0.054781698
118	0x3d4f39e0	0.050592303
119	0x3e6273e6	0.22114524
120	0xbcbceb3c	-0.023061387
121	0x3e9d878c	0.30767477
122	0x3dd98484	0.106209785
123	0xbcf9f9a7	-0.030514551
124	0xbcb5ee48	-0.022208348
125	0xbe2b507e	-0.16729924
126	0x3d75f1cb	0.060045045
127	0xbe70e4bf	-0.2352476
128	0x3dced4e4	0.100991994
129	0x3d6311a5	0.05543675
130	0xbdda2a9a	-0.10652657
131	0xbc18d2e6	-0.009327626
132	0xbda86a42	-0.08223392
133	0xbc598816	-0.013277074
134	0x3dc661df	0.09686636
135	0xbe829453	-0.25503787
136	0xbe4d5395	-0.20051415
137	0xbe177351	-0.14790083
138	0x3e3f0867	0.18655549
139	0xbe07d8f4	-0.13266355
140	0x3ee47ca2	0.44626337
141	0x3c889624	0.016673155
142	0xbd37bfd0	-0.04486066
143	0xbbdaee58	-0.006681245
144	0xbe61cacb	-0.22050016
145	0xbe274b0e	-0.16337225
146	0x3e874526	0.26419944
147	0xbd940045	-0.07226614
148	0x3e6e6edf	0.23284481
149	0xbdeffa42	-0.11717655
150	0xbeb1a433	-0.34695587
151	0x3e06416a	0.13110891
152	0x3df02d70	0.117274165
153	0x3dfeeb82	0.12447263
154	0xbcc05828	-0.023479536
155	0xbd430f4f	-0.04762202
156	0x3e43fc27	0.19139157
157	0xbe5a58ea	-0.2132298
158	0x3d87be03	0.06628039
159	0x3e466e1f	0.19377945
160	0xbbb1ce65	-0.0054262155
161	0x3e3b83c7	0.18311988
162	0xbda1fe72	-0.0790986
163	0xbdbf7ae0	-0.093496084
164	0xbdebc1af	-0.115115516
165	0xbd2cf4fa	-0.042225815
166	0xbd41a968	-0.0472807
167	0x3d091e8e	0.033476405
168	0xbe0518d3	-0.12997751
169	0xbe8a7711	-0.27043965
170	0x3dbdb16e	0.09262358
171	0x3d947e0f	0.07250606
172	0x3e0de548	0.13856995
173	0x3e00e3e6	0.12586936
174	0x3e49bc2b	0.19700687
175	0x3c39ba52	0.011335926
176	0xbdffdb82	-0.1249304
177	0x3d0419a8	0.03225103
178	0xbda6e40e	-0.08148967
179	0xbe83c771	-0.257381
180	0xbd95ea2f	-0.073200576
181	0xbdc4d5b5	-0.09611074
182	0xbe9f65f7	-0.3113248
183	0xbdf4884a	-0.119400576
184	0x3b06b4f9	0.0020554645
185	0xbe0b48ab	-0.1360194
186	0x3d1890c6	0.03724744
187	0xbdb8a954	-0.09016672
188	0xbe230123	-0.15918402
189	0x3d81952e	0.06327282
190	0x3e365b0f	0.17808174
191	0xbdc1acb4	-0.09456769
192	0x3ea0bfdd	0.3139638
193	0xbe022a6a	-0.12711492
194	0xbc9eb05f	-0.01937121
195	0x3d6e784a	0.058220185
196	0xbdbec67f	-0.09315204
197	0x3dea0bfd	0.11428068
198	0x3dc9c310	0.09851658
199	0x3dbfd636	0.09367029
200	0xbb3948f3	-0.002827224
201	0x3e271c96	0.16319498
202	0x3e505f6f	0.20348905
203	0xbebe5a41	-0.37178233
204	0x3dd9dd6a	0.106379345
205	0xbd9e4f1b	-0.07729932
206	0x38b4c6e6	8.6201166e-05
207	0x3db5359d	0.088481165
208	0x3ce7abd4	0.028280176
209	0x3d3ea8cf	0.046547707
210	0xbd2d5d41	-0.042325262
211	0x3ea0bfbd	0.31396285
212	0x3d2f29d8	0.042764515
213	0x3eb27460	0.34854412
214	0x3d7874ac	0.060658142
215	0xbca0c360	-0.019624412
216	0xbe3d727e	-0.18500707
217	0x3e7c5f15	0.24645646
218	0x3d9bffa2	0.076171175
219	0xbd900044	-0.07031301
220	0x3d62764f	0.05528861
221	0xbdf53812	-0.11973585
222	0x3d255eeb	0.040373724
223	0xbd309858	-0.043114036
224	0xbcc1eff6	-0.023673993
225	0xbd0a3911	-0.03374583
226	0x3e3f639f	0.18690346
227	0xbe82ed85	-0.25571838
228	0x3d3f943e	0.046772234
229	0xbd48fce0	-0.049069285
230	0xbde11528	-0.10990363
231	0xbd693827	-0.056938317
232	0xbe219cdd	-0.15782495
233	0xbe9b8bbb	-0.30380043
234	0x3e3cfffb	0.18457024
235	0xbd6978d4	-0.056999996
236	0x3cf1de39	0.02952491
237	0xbe116659	-0.14199199
238	0x3e8cac36	0.27475137
239	0xbe2a9d96	-0.16661677
240	0xbd5e8d55	-0.054334003
241	0x3d958957	0.07301586
242	0xbe82ef69	-0.2557328
243	0xbdb17daa	-0.08666547
244	0xbdff81cb	-0.12475928
245	0x3e846150	0.25855494
246	0xbe16ce40	-0.14727116
247	0xbde28d2c	-0.11062083
248	0xbd487f50	-0.04894954
249	0x3ba8a3db	0.005146486
250	0x3de577b2	0.11204471
251	0xbdd6db91	-0.10491098
252	0xbe59a58c	-0.21254557
253	0xbda21aac	-0.079152435
254	0xbe46ec61	-0.19426109
255	0x3b89342a	0.0041871266

fc2.bias f4 [10]
0	0xbe2bde4a	-0.16784015
1	0x3e824e53	0.25450382
2	0xbdbd5a5b	-0.092457496
3	0xbcc4939b	-0.023996165
4	0x3df397d2	0.11894192
5	0xbe132637	-0.14370047
6	0x3e05b3d2	0.13056877
7	0xbdc36080	-0.0953989
8	0x3e69ca9b	0.22831194
9	0xbdc072d2	-0.093969
